grove-vision-ai-v2/cool-eye-fomo.tflite (tflite, 56264 bytes, 21 tensors)

model_1/logits/Conv2D i1 [2, 1, 1, 32]
21 -38 -43 110 -3 1 -39 41
75 -44 -25 -27 -26 36 -36 28
60 -34 -28 -64 103 34 41 -54
-66 -52 -17 127 8 -26 5 33
57 80 78 -124 -117 78 -4 11
-37 -7 35 106 119 45 43 -1
-40 -3 -59 -90 -91 34 25 114
86 70 -48 -37 100 -111 -127 -13
00000000: 15da d56e fd01 d929 4bd4 e7e5 e624 dc1c
00000010: 3cde e4c0 6722 29ca becc ef7f 08e6 0521
00000020: 3950 4e84 8b4e fc0b dbf9 236a 772d 2bff
00000030: d8fd c5a6 a522 1972 5646 d0db 6491 81f3

model_1/head/Conv2D i1 [32, 1, 1, 96]
-55 -75 111 14 103 1 -80 -99
52 -97 -104 -1 55 -14 -33 46
-49 -25 -93 -48 -67 -127 3 114
-120 14 79 -43 114 1 -16 -69
91 -63 -88 67 -106 -83 -105 31
83 -89 -95 106 56 -104 85 -24
28 -62 -22 90 -67 -56 -88 104
11 73 113 -121 -67 89 -90 55
-1 17 78 91 54 99 70 -106
95 -96 39 90 -104 28 -65 32
61 20 93 -3 -70 -70 -90 98
32 83 -37 -107 13 51 41 26
-70 15 -56 6 -23 87 41 15
56 -91 -86 109 66 -54 32 54
115 -31 -7 116 -42 -31 38 37
-21 15 -27 101 17 11 101 -49
65 98 -3 30 55 46 -15 -47
-57 -1 -15 -81 -28 34 -32 -55
-11 -94 118 49 20 60 -69 -42
10 101 64 81 -44 118 -127 -64
-41 41 78 28 101 36 2 20
-106 81 -49 44 80 -28 -33 58
-64 80 -50 -103 -6 62 -58 -62
65 29 46 34 80 62 38 -14
24 19 -47 95 -7 -40 88 94
-104 81 -24 120 90 -44 86 -108
-36 -19 -10 59 -87 -40 107 32
-64 72 107 13 -56 80 84 97
-52 -16 -80 -93 -71 78 94 -13
-109 -76 19 2 -74 110 -27 -73
102 18 97 -81 -32 44 22 21
-78 98 -49 10 -6 68 -100 72
00000000: c9b5 6f0e 6701 b09d 349f 98ff 37f2 df2e
00000010: cfe7 a3d0 bd81 0372 880e 4fd5 7201 f0bb
00000020: 5bc1 a843 96ad 971f 53a7 a16a 3898 55e8
00000030: 1cc2 ea5a bdc8 a868 0b49 7187 bd59 a637
00000040: ff11 4e5b 3663 4696 5fa0 275a 981c bf20
00000050: 3d14 5dfd baba a662 2053 db95 0d33 291a
00000060: ba0f c806 e957 290f 38a5 aa6d 42ca 2036
00000070: 73e1 f974 d6e1 2625 eb0f e565 110b 65cf
00000080: 4162 fd1e 372e f1d1 c7ff f1af e422 e0c9
00000090: f5a2 7631 143c bbd6 0a65 4051 d476 81c0
000000a0: d729 4e1c 6524 0214 9651 cf2c 50e4 df3a
000000b0: c050 ce99 fa3e c6c2 411d 2e22 503e 26f2
000000c0: 1813 d15f f9d8 585e 9851 e878 5ad4 5694
000000d0: dced f63b a9d8 6b20 c048 6b0d c850 5461
000000e0: ccf0 b0a3 b94e 5ef3 93b4 1302 b66e e5b7
000000f0: 6612 61af e02c 1615 b262 cf0a fa44 9c48

model_1/block_6_expand/Conv2D i1 [96, 1, 1, 16]
-1 109 -92 31 56 -21 100 77
-24 -36 19 -88 76 127 -55 7
-25 -4 -80 -29 -6 46 22 -127
32 -37 -27 -62 0 -34 -38 5
-18 -20 24 63 28 47 -108 127
-10 8 64 -59 -12 -66 -48 58
86 -108 100 -2 -15 -42 -30 127
-29 61 88 70 -2 51 21 20
-51 -27 6 54 -117 14 -29 -120
3 -6 54 -7 32 42 100 127
127 33 -38 -32 -65 25 17 73
34 -29 46 93 114 17 -90 -3
9 -35 -44 -41 -71 4 4 -45
-40 -43 -16 40 76 38 127 0
-40 40 -42 -82 12 -41 -80 15
-65 56 -80 -71 -127 -40 8 72
57 71 66 10 62 29 59 2
72 -31 38 13 -127 -40 -52 8
-25 59 14 -41 -12 -10 20 -16
-17 46 -47 12 48 127 21 16
81 49 -50 72 -28 -40 53 -71
-75 -38 -63 -96 -127 -58 20 107
41 0 76 12 -25 -31 7 89
-80 22 -18 12 -8 -11 69 127
-66 -33 22 9 10 -8 120 30
-80 23 19 -4 -5 75 -35 127
8 76 38 60 124 27 57 127
-13 71 -88 -39 52 96 -106 -71
-127 112 16 -6 -12 -4 60 -4
-40 25 123 2 -86 11 -34 54
-9 -14 -127 -56 76 -32 -90 -18
-18 -23 -26 -66 -9 -70 -57 38
00000000: ff6d a41f 38eb 644d e8dc 13a8 4c7f c907
00000010: e7fc b0e3 fa2e 1681 20db e5c2 00de da05
00000020: eeec 183f 1c2f 947f f608 40c5 f4be d03a
00000030: 5694 64fe f1d6 e27f e33d 5846 fe33 1514
00000040: cde5 0636 8b0e e388 03fa 36f9 202a 647f
00000050: 7f21 dae0 bf19 1149 22e3 2e5d 7211 a6fd
00000060: 09dd d4d7 b904 04d3 d8d5 f028 4c26 7f00
00000070: d828 d6ae 0cd7 b00f bf38 b0b9 81d8 0848
00000080: 3947 420a 3e1d 3b02 48e1 260d 81d8 cc08
00000090: e73b 0ed7 f4f6 14f0 ef2e d10c 307f 1510
000000a0: 5131 ce48 e4d8 35b9 b5da c1a0 81c6 146b
000000b0: 2900 4c0c e7e1 0759 b016 ee0c f8f5 457f
000000c0: bedf 1609 0af8 781e b017 13fc fb4b dd7f
000000d0: 084c 263c 7c1b 397f f347 a8d9 3460 96b9
000000e0: 8170 10fa f4fc 3cfc d819 7b02 aa0b de36
000000f0: f7f2 81c8 4ce0 a6ee eee9 e6be f7ba c726

model_1/block_5_project/Conv2D i1 [16, 1, 1, 96]
-127 43 53 -9 -73 -12 -77 -8
-84 6 0 -33 37 52 41 -24
32 -1 93 9 1 -60 126 59
46 16 -5 27 -47 -102 -76 4
-31 -54 37 28 10 42 5 14
-34 -7 -86 10 -56 -14 -19 77
-29 27 -57 -28 7 -14 34 -47
-73 11 -21 70 67 40 9 0
-19 -70 -46 38 -68 -78 -5 -16
16 -2 -90 -36 -54 8 -47 -12
-55 65 57 -93 21 2 20 40
49 -29 6 -19 -52 -32 -43 5
6 19 21 -23 -42 1 -22 12
-22 10 51 -55 27 -3 -62 -26
5 10 -58 30 -4 -63 25 21
-13 -54 -23 -21 67 -78 114 -35
44 17 -16 55 23 60 -19 -39
10 14 -21 -21 -25 56 -127 -68
-70 -28 -37 -33 41 -49 -27 40
43 4 -42 35 28 41 -4 -80
7 2 -66 -7 -18 -13 -72 -8
-43 -36 11 -46 3 31 2 -80
-39 -27 -75 -37 24 -53 -30 1
-73 -3 -35 31 7 53 -42 47
66 -34 37 1 27 -70 79 14
-20 12 -3 -12 -100 -42 17 -29
-113 -51 -24 55 23 -45 -41 25
20 -63 45 -22 -55 35 -55 113
-60 127 -35 6 8 -23 -13 7
-93 75 84 31 -55 2 -7 16
68 3 -19 -45 16 -16 -24 90
-2 -18 69 -32 -9 21 -35 13
00000000: 812b 35f7 b7f4 b3f8 ac06 00df 2534 29e8
00000010: 20ff 5d09 01c4 7e3b 2e10 fb1b d19a b404
00000020: e1ca 251c 0a2a 050e def9 aa0a c8f2 ed4d
00000030: e31b c7e4 07f2 22d1 b70b eb46 4328 0900
00000040: edba d226 bcb2 fbf0 10fe a6dc ca08 d1f4
00000050: c941 39a3 1502 1428 31e3 06ed cce0 d505
00000060: 0613 15e9 d601 ea0c ea0a 33c9 1bfd c2e6
00000070: 050a c61e fcc1 1915 f3ca e9eb 43b2 72dd
00000080: 2c11 f037 173c edd9 0a0e ebeb e738 81bc
00000090: bae4 dbdf 29cf e528 2b04 d623 1c29 fcb0
000000a0: 0702 bef9 eef3 b8f8 d5dc 0bd2 031f 02b0
000000b0: d9e5 b5db 18cb e201 b7fd dd1f 0735 d62f
000000c0: 42de 2501 1bba 4f0e ec0c fdf4 9cd6 11e3
000000d0: 8fcd e837 17d3 d719 14c1 2dea c923 c971
000000e0: c47f dd06 08e9 f307 a34b 541f c902 f910
000000f0: 4403 edd3 10f0 e85a feee 45e0 f715 dd0d

model_1/block_5_depthwise_BN/FusedBatchNormV3;model_1/block_5_depthwise/depthwise;model_1/block_6_expand/Conv2D i1 [1, 3, 3, 96]
38 114 -14 35 -20 8 50 82
54 -39 -114 76 -32 21 38 -70
-54 19 16 27 0 87 73 53
29 -4 -43 24 -59 29 17 -1
-21 21 -16 67 -19 44 14 -4
35 -49 13 12 -118 16 4 -61
-1 -69 -105 -27 91 19 -2 -1
-48 -60 -41 -127 -81 3 -114 13
-59 38 80 4 -49 62 23 6
-82 17 44 -28 20 -62 -36 15
42 -6 58 -26 -65 -33 -17 60
-127 -16 -79 19 75 -4 43 -7
-31 -65 5 60 2 104 -29 76
66 28 -81 89 -13 -39 -127 89
-127 110 31 127 93 21 127 40
9 4 6 91 -10 127 -27 -127
77 111 11 7 43 75 5 -63
127 2 107 124 -82 -65 127 -111
-17 -71 -127 -32 -75 127 -12 -127
19 78 -74 -38 -112 -127 -68 110
-61 92 127 6 -4 127 127 2
-22 14 -37 -121 37 -81 -27 127
-3 -57 127 -104 -127 -53 86 91
34 93 -121 -13 127 -24 127 16
46 -111 -21 18 -4 -4 -14 99
21 54 104 15 19 33 0 -82
-62 10 15 2 4 63 56 58
34 -7 37 37 63 23 -12 -55
-11 -86 -32 17 -32 4 27 32
11 18 -8 92 -81 -27 -20 -59
24 11 -21 -7 43 -15 -9 55
74 -72 -24 -43 -127 21 -113 2
00000000: 2672 f223 ec08 3252 36d9 8e4c e015 26ba
00000010: ca13 101b 0057 4935 1dfc d518 c51d 11ff
00000020: eb15 f043 ed2c 0efc 23cf 0d0c 8a10 04c3
00000030: ffbb 97e5 5b13 feff d0c4 d781 af03 8e0d
00000040: c526 5004 cf3e 1706 ae11 2ce4 14c2 dc0f
00000050: 2afa 3ae6 bfdf ef3c 81f0 b113 4bfc 2bf9
00000060: e1bf 053c 0268 e34c 421c af59 f3d9 8159
00000070: 816e 1f7f 5d15 7f28 0904 065b f67f e581
00000080: 4d6f 0b07 2b4b 05c1 7f02 6b7c aebf 7f91
00000090: efb9 81e0 b57f f481 134e b6da 9081 bc6e
000000a0: c35c 7f06 fc7f 7f02 ea0e db87 25af e57f
000000b0: fdc7 7f98 81cb 565b 225d 87f3 7fe8 7f10
000000c0: 2e91 eb12 fcfc f263 1536 680f 1321 00ae
000000d0: c20a 0f02 043f 383a 22f9 2525 3f17 f4c9
000000e0: f5aa e011 e004 1b20 0b12 f85c afe5 ecc5
000000f0: 180b ebf9 2bf1 f737 4ab8 e8d5 8115 8f02

model_1/block_5_expand/Conv2D i1 [96, 1, 1, 16]
-62 59 4 -30 -13 -70 -58 -24
46 -9 27 -62 95 -95 10 -127
-100 55 -94 -68 -79 54 -22 73
-7 45 98 -33 19 127 0 11
-36 -18 -78 -25 5 -9 14 -20
-73 127 45 13 62 30 -67 78
-31 -57 -11 -79 -72 12 -104 -127
-30 16 55 -84 -57 -36 -116 -45
105 -8 -41 30 -57 10 -127 34
20 17 7 37 35 -46 -57 -69
-80 46 -87 -66 100 -73 -57 -127
88 -42 16 -24 18 -105 -123 -116
-28 -13 9 20 -72 31 37 -15
18 -40 127 -11 -29 2 -96 19
-15 77 127 -13 37 73 -52 -58
53 46 -69 -2 35 -6 -21 44
-63 -4 4 -12 48 -54 100 127
-74 9 -77 -70 35 116 -67 -70
-14 17 62 48 -87 -71 -127 -85
21 37 78 17 1 -78 69 3
-33 -127 13 -65 -97 30 38 22
-19 -43 -6 27 -18 49 -98 33
88 -46 -30 82 -107 -58 86 7
127 119 -33 63 1 -59 -25 108
-68 -50 127 23 75 -66 75 -10
51 -55 104 67 -77 36 -81 48
-34 -56 32 44 0 -1 95 41
-108 -2 20 4 -28 127 120 -42
78 -88 119 35 47 -2 106 96
29 127 71 36 94 10 65 -42
-21 107 25 -30 14 127 -61 80
-95 -54 -26 -26 -48 117 4 -46
00000000: c23b 04e2 f3ba c6e8 2ef7 1bc2 5fa1 0a81
00000010: 9c37 a2bc b136 ea49 f92d 62df 137f 000b
00000020: dcee b2e7 05f7 0eec b77f 2d0d 3e1e bd4e
00000030: e1c7 f5b1 b80c 9881 e210 37ac c7dc 8cd3
00000040: 69f8 d71e c70a 8122 1411 0725 23d2 c7bb
00000050: b02e a9be 64b7 c781 58d6 10e8 1297 858c
00000060: e4f3 0914 b81f 25f1 12d8 7ff5 e302 a013
00000070: f14d 7ff3 2549 ccc6 352e bbfe 23fa eb2c
00000080: c1fc 04f4 30ca 647f b609 b3ba 2374 bdba
00000090: f211 3e30 a9b9 81ab 1525 4e11 01b2 4503
000000a0: df81 0dbf 9f1e 2616 edd5 fa1b ee31 9e21
000000b0: 58d2 e252 95c6 5607 7f77 df3f 01c5 e76c
000000c0: bcce 7f17 4bbe 4bf6 33c9 6843 b324 af30
000000d0: dec8 202c 00ff 5f29 94fe 1404 e47f 78d6
000000e0: 4ea8 7723 2ffe 6a60 1d7f 4724 5e0a 41d6
000000f0: eb6b 19e2 0e7f c350 a1ca e6e6 d075 04d2

model_1/block_4_project/Conv2D i1 [16, 1, 1, 96]
30 39 18 11 -45 -81 -6 -32
3 -73 -5 11 60 -55 47 38
-69 -53 30 12 75 23 -68 25
7 80 127 62 -1 90 60 -43
18 0 2 -34 49 43 -1 -1
123 15 21 -28 -21 -20 9 -54
24 -14 94 -8 -55 -3 31 22
-35 -29 -15 17 4 36 -60 0
24 3 64 48 12 -38 9 6
10 39 13 16 60 -1 55 28
-9 33 23 43 -50 4 10 56
24 15 -77 -26 24 47 105 74
4 28 -43 -6 15 -51 71 -103
-71 -16 -74 -45 -20 -55 -25 -47
-26 -29 -31 -24 -28 -82 101 -8
-21 10 22 50 -59 14 -36 24
-18 17 28 13 -22 59 -76 100
38 6 12 -47 36 -33 -26 31
-76 13 55 -91 -40 38 66 39
22 28 -75 20 -36 14 3 -4
28 25 102 38 -35 -127 1 -4
44 51 -3 10 -51 -5 106 -40
70 -12 52 -70 -16 -47 -10 11
-28 -51 19 -6 66 -32 -46 43
13 -5 -2 -14 85 58 -80 49
-69 73 19 -29 41 -10 42 -3
25 -22 -127 -11 -16 -88 5 -14
17 -44 -48 21 -48 -50 -51 85
-28 -41 -3 2 -59 13 -31 -34
83 34 -52 76 28 67 -6 -4
-109 1 -13 5 -38 76 2 -57
42 18 60 55 -45 -53 -30 91
00000000: 1e27 120b d3af fae0 03b7 fb0b 3cc9 2f26
00000010: bbcb 1e0c 4b17 bc19 0750 7f3e ff5a 3cd5
00000020: 1200 02de 312b ffff 7b0f 15e4 ebec 09ca
00000030: 18f2 5ef8 c9fd 1f16 dde3 f111 0424 c400
00000040: 1803 4030 0cda 0906 0a27 0d10 3cff 371c
00000050: f721 172b ce04 0a38 180f b3e6 182f 694a
00000060: 041c d5fa 0fcd 4799 b9f0 b6d3 ecc9 e7d1
00000070: e6e3 e1e8 e4ae 65f8 eb0a 1632 c50e dc18
00000080: ee11 1c0d ea3b b464 2606 0cd1 24df e61f
00000090: b40d 37a5 d826 4227 161c b514 dc0e 03fc
000000a0: 1c19 6626 dd81 01fc 2c33 fd0a cdfb 6ad8
000000b0: 46f4 34ba f0d1 f60b e4cd 13fa 42e0 d22b
000000c0: 0dfb fef2 553a b031 bb49 13e3 29f6 2afd
000000d0: 19ea 81f5 f0a8 05f2 11d4 d015 d0ce cd55
000000e0: e4d7 fd02 c50d e1de 5322 cc4c 1c43 fafc
000000f0: 9301 f305 da4c 02c7 2a12 3c37 d3cb e25b

model_1/block_4_depthwise_BN/FusedBatchNormV3;model_1/block_4_depthwise/depthwise;model_1/block_6_expand/Conv2D i1 [1, 3, 3, 96]
-60 -15 21 -38 112 -32 58 17
-18 -1 -14 -40 2 -4 -15 -8
-16 -16 -29 -18 11 26 -28 74
-16 -8 -9 7 30 7 42 9
-61 -2 4 -60 -11 17 -18 127
12 -86 31 -67 -50 42 -44 -10
-7 12 -8 32 -46 -14 29 -34
7 -14 16 -52 -5 -10 -15 -74
11 -22 -37 30 -37 54 -14 -42
87 1 13 23 -17 34 127 -16
-2 1 -127 -55 -43 -33 10 15
67 -15 29 -45 5 33 -27 6
6 48 76 -101 -19 -8 127 -40
-4 -10 -34 12 2 10 -97 81
-9 47 36 -23 -20 127 67 117
49 -22 65 45 127 37 108 -22
-125 -6 -78 -20 -42 -60 127 -48
-12 -127 -29 -70 39 -28 -64 19
40 -9 28 127 -67 19 -75 4
-87 0 -16 19 -46 -113 -127 14
-49 -38 2 -107 -13 5 -28 127
-127 -7 39 -40 -62 -127 0 -120
-35 -14 5 -115 127 72 -67 45
-91 5 11 13 17 127 -29 -72
6 -26 11 10 78 -28 89 -19
-35 0 -5 9 -10 -12 5 -19
-19 -10 -54 -14 6 35 66 96
6 -28 -5 -14 20 19 49 12
-49 6 -6 50 2 -92 -14 51
10 49 18 -39 10 -26 -41 -19
6 -20 -12 30 32 -27 10 -3
47 -18 8 -47 -30 3 -43 -33
00000000: c4f1 15da 70e0 3a11 eeff f2d8 02fc f1f8
00000010: f0f0 e3ee 0b1a e44a f0f8 f707 1e07 2a09
00000020: c3fe 04c4 f511 ee7f 0caa 1fbd ce2a d4f6
00000030: f90c f820 d2f2 1dde 07f2 10cc fbf6 f1b6
00000040: 0bea db1e db36 f2d6 5701 0d17 ef22 7ff0
00000050: fe01 81c9 d5df 0a0f 43f1 1dd3 0521 e506
00000060: 0630 4c9b edf8 7fd8 fcf6 de0c 020a 9f51
00000070: f72f 24e9 ec7f 4375 31ea 412d 7f25 6cea
00000080: 83fa b2ec d6c4 7fd0 f481 e3ba 27e4 c013
00000090: 28f7 1c7f bd13 b504 a900 f013 d28f 810e
000000a0: cfda 0295 f305 e47f 81f9 27d8 c281 0088
000000b0: ddf2 058d 7f48 bd2d a505 0b0d 117f e3b8
000000c0: 06e6 0b0a 4ee4 59ed dd00 fb09 f6f4 05ed
000000d0: edf6 caf2 0623 4260 06e4 fbf2 1413 310c
000000e0: cf06 fa32 02a4 f233 0a31 12d9 0ae6 d7ed
000000f0: 06ec f41e 20e5 0afd 2fee 08d1 e203 d5df

model_1/block_4_expand/Conv2D i1 [96, 1, 1, 16]
54 -51 -41 66 -127 -18 118 34
28 86 -64 54 19 9 59 87
-60 18 -101 14 105 111 24 31
-49 29 -18 24 -80 108 -127 -45
-35 60 72 5 54 70 -12 41
39 20 54 -12 46 -127 -12 10
127 -7 37 24 12 40 -22 2
17 56 -40 -7 -28 45 -20 37
-127 -21 61 9 -91 22 -111 -38
8 80 0 -16 10 88 -71 63
-67 12 -23 13 127 8 11 13
-54 11 -20 29 -70 20 -110 -29
-127 45 -78 33 -13 -83 59 28
-8 -34 -43 63 -11 -53 -59 13
38 112 -4 -20 86 64 127 -2
30 0 18 41 51 25 -14 6
-41 -44 -48 67 -49 90 -51 -56
20 -21 91 58 127 74 -115 -7
-14 -127 -33 69 -29 -67 5 50
33 43 0 67 -50 16 -10 -44
-35 -65 -127 42 -88 78 66 -52
11 -90 43 -38 -11 101 -67 90
-41 -23 -20 10 3 60 75 -15
15 18 20 -72 -21 127 -84 97
-7 -83 -87 77 -107 -104 16 70
76 83 -50 127 18 -92 -27 -35
-56 -31 -59 -20 5 14 45 14
-17 127 -24 -12 61 33 11 -27
-127 6 -49 -61 -7 122 3 -75
116 -70 99 13 65 -47 -92 -74
-22 -127 74 -50 -65 -52 12 76
1 -59 -75 -29 64 -15 -7 -29
00000000: 36cd d742 81ee 7622 1c56 c036 1309 3b57
00000010: c412 9b0e 696f 181f cf1d ee18 b06c 81d3
00000020: dd3c 4805 3646 f429 2714 36f4 2e81 f40a
00000030: 7ff9 2518 0c28 ea02 1138 d8f9 e42d ec25
00000040: 81eb 3d09 a516 91da 0850 00f0 0a58 b93f
00000050: bd0c e90d 7f08 0b0d ca0b ec1d ba14 92e3
00000060: 812d b221 f3ad 3b1c f8de d53f f5cb c50d
00000070: 2670 fcec 5640 7ffe 1e00 1229 3319 f206
00000080: d7d4 d043 cf5a cdc8 14eb 5b3a 7f4a 8df9
00000090: f281 df45 e3bd 0532 212b 0043 ce10 f6d4
000000a0: ddbf 812a a84e 42cc 0ba6 2bda f565 bd5a
000000b0: d7e9 ec0a 033c 4bf1 0f12 14b8 eb7f ac61
000000c0: f9ad a94d 9598 1046 4c53 ce7f 12a4 e5dd
000000d0: c8e1 c5ec 050e 2d0e ef7f e8f4 3d21 0be5
000000e0: 8106 cfc3 f97a 03b5 74ba 630d 41d1 a4b6
000000f0: ea81 4ace bfcc 0c4c 01c5 b5e3 40f1 f9e3

model_1/block_3_project/Conv2D i1 [16, 1, 1, 48]
45 31 16 -33 56 54 -35 56
7 115 0 55 -34 41 -4 57
54 92 53 -74 -76 85 -5 59
71 53 39 46 -61 -58 13 93
-43 5 -71 53 52 -127 -40 2
18 -27 62 -2 -12 -65 -68 -21
-44 17 -79 -57 13 102 -66 26
1 -37 -54 30 70 -23 -26 -28
-42 -28 6 25 -82 57 -111 -49
-38 -36 59 77 -39 -28 36 -43
21 -67 -31 71 27 -54 127 -38
-22 26 -39 -16 19 48 32 39
-10 4 57 -28 -8 -99 15 11
114 74 -60 13 102 -28 127 66
-66 -7 -31 41 77 -77 -34 -96
10 -14 43 -72 1 43 -25 6
24 -15 61 64 -76 15 -5 -10
22 43 70 -19 29 -101 108 -43
42 -11 -2 -27 37 100 7 -25
43 -44 14 -18 -38 1 10 39
-39 -68 9 -102 -5 5 -21 -29
-30 71 127 50 -9 -40 10 33
59 -36 91 32 -28 -69 -7 30
36 9 -16 19 24 22 0 -19
101 2 18 -49 92 70 52 21
51 -21 -92 40 58 -46 18 3
-79 -94 -3 -89 -27 24 -58 -31
-72 127 -103 126 -63 -46 27 57
43 -38 1 -32 7 32 -26 28
-50 6 -2 34 -51 86 -38 -47
2 -14 -45 -5 -10 54 21 -23
70 43 31 88 49 -21 40 1
00000000: 2d1f 10df 3836 dd38 0773 0037 de29 fc39
00000010: 365c 35b6 b455 fb3b 4735 272e c3c6 0d5d
00000020: d505 b935 3481 d802 12e5 3efe f4bf bceb
00000030: d411 b1c7 0d66 be1a 01db ca1e 46e9 e6e4
00000040: d6e4 0619 ae39 91cf dadc 3b4d d9e4 24d5
00000050: 15bd e147 1bca 7fda ea1a d9f0 1330 2027
00000060: f604 39e4 f89d 0f0b 724a c40d 66e4 7f42
00000070: bef9 e129 4db3 dea0 0af2 2bb8 012b e706
00000080: 18f1 3d40 b40f fbf6 162b 46ed 1d9b 6cd5
00000090: 2af5 fee5 2564 07e7 2bd4 0eee da01 0a27
000000a0: d9bc 099a fb05 ebe3 e247 7f32 f7d8 0a21
000000b0: 3bdc 5b20 e4bb f91e 2409 f013 1816 00ed
000000c0: 6502 12cf 5c46 3415 33eb a428 3ad2 1203
000000d0: b1a2 fda7 e518 c6e1 b87f 997e c1d2 1b39
000000e0: 2bda 01e0 0720 e61c ce06 fe22 cd56 dad1
000000f0: 02f2 d3fb f636 15e9 462b 1f58 31eb 2801

model_1/block_3_depthwise_BN/FusedBatchNormV3;model_1/block_3_depthwise/depthwise i1 [1, 3, 3, 48]
-119 79 -40 102 -87 80 -94 70
-127 -70 96 -7 85 -113 -84 -82
82 70 127 -127 96 -71 127 -78
-102 -93 78 72 -116 -91 -116 101
48 -102 70 -127 -101 -127 93 13
-1 -78 100 -108 85 114 -74 -50
-127 87 -31 67 -78 76 -61 61
-122 -101 127 23 89 -86 -115 -36
114 81 117 -115 127 -127 114 -127
-126 -90 67 86 49 -127 -127 127
100 -127 103 -98 -74 -126 107 3
-59 116 80 -75 -33 127 -127 -88
-84 89 -17 31 -119 27 -60 50
-37 -58 41 -15 49 2 -88 2
64 46 60 -24 38 -63 85 -37
-109 -39 32 31 127 -54 -64 45
50 -71 51 -53 -34 -64 71 -39
-80 -32 24 -55 -115 106 -87 -52
-85 95 -32 91 -62 127 -127 67
-58 -97 73 -70 92 -88 -127 -89
104 108 -56 -64 58 -80 125 -54
-88 -109 108 85 -118 -82 -116 54
106 52 127 -99 -109 -61 102 -71
-102 -127 127 -103 119 24 -65 -32
-122 127 -127 127 -127 89 -83 127
-85 -127 112 -93 127 -127 -118 -127
125 127 -96 -95 80 -120 112 -76
-127 -127 127 127 31 -123 -91 98
127 56 119 -58 -127 -73 127 -127
-127 117 92 -101 -86 86 -125 -36
-97 58 -104 64 -63 30 -73 98
-90 -70 67 -95 55 -54 -82 -33
00000000: 894f d866 a950 a246 81ba 60f9 558f acae
00000010: 5246 7f81 60b9 7fb2 9aa3 4e48 8ca5 8c65
00000020: 309a 4681 9b81 5d0d ffb2 6494 5572 b6ce
00000030: 8157 e143 b24c c33d 869b 7f17 59aa 8ddc
00000040: 7251 758d 7f81 7281 82a6 4356 3181 817f
00000050: 6481 679e b682 6b03 c574 50b5 df7f 81a8
00000060: ac59 ef1f 891b c432 dbc6 29f1 3102 a802
00000070: 402e 3ce8 26c1 55db 93d9 201f 7fca c02d
00000080: 32b9 33cb dec0 47d9 b0e0 18c9 8d6a a9cc
00000090: ab5f e05b c27f 8143 c69f 49ba 5ca8 81a7
000000a0: 686c c8c0 3ab0 7dca a893 6c55 8aae 8c36
000000b0: 6a34 7f9d 93c3 66b9 9a81 7f99 7718 bfe0
000000c0: 867f 817f 8159 ad7f ab81 70a3 7f81 8a81
000000d0: 7d7f a0a1 5088 70b4 8181 7f7f 1f85 a562
000000e0: 7f38 77c6 81b7 7f81 8175 5c9b aa56 83dc
000000f0: 9f3a 9840 c11e b762 a6ba 43a1 37ca aedf

model_1/block_3_expand/Conv2D i1 [48, 1, 1, 8]
64 46 127 -52 59 115 -80 -58
19 -109 -127 8 48 23 32 -9
-127 -20 -42 -12 68 25 -73 -54
-8 43 127 -61 10 -69 1 -3
-127 13 -26 -15 48 4 -43 -49
-97 22 -51 -2 -2 57 -78 -127
-41 -127 -109 24 86 13 11 32
-60 -127 -73 -89 -47 -45 42 90
74 38 1 -1 90 -65 -127 7
-30 61 -57 102 -64 -44 127 -29
-33 127 41 50 109 -26 -10 57
-80 -29 -27 6 -90 113 127 -7
77 18 -127 31 -7 -50 -59 -26
62 -42 -81 30 -9 -127 -60 -33
21 -70 62 18 106 -127 -68 11
-31 -44 4 127 53 78 -75 18
94 14 -42 24 67 -117 -127 -18
57 127 62 65 42 69 31 -92
19 -21 18 -13 127 -4 45 -32
25 127 1 12 -126 0 22 -44
-42 29 81 -127 11 13 -17 96
-24 55 55 -127 9 21 -22 83
-81 -54 -73 -8 -127 108 106 -20
85 24 -127 30 21 -24 -72 -11
-57 49 2 6 -16 62 -127 96
-109 -69 -127 7 -52 -65 73 89
29 -16 -28 -36 89 -8 127 -46
127 -74 28 83 5 41 -7 104
59 29 66 -6 127 -90 80 -76
-6 9 -27 -64 -81 29 127 -39
52 -116 -62 -68 -127 -10 3 -36
13 43 -4 -3 -127 0 -34 -15
00000000: 402e 7fcc 3b73 b0c6 1393 8108 3017 20f7
00000010: 81ec d6f4 4419 b7ca f82b 7fc3 0abb 01fd
00000020: 810d e6f1 3004 d5cf 9f16 cdfe fe39 b281
00000030: d781 9318 560d 0b20 c481 b7a7 d1d3 2a5a
00000040: 4a26 01ff 5abf 8107 e23d c766 c0d4 7fe3
00000050: df7f 2932 6de6 f639 b0e3 e506 a671 7ff9
00000060: 4d12 811f f9ce c5e6 3ed6 af1e f781 c4df
00000070: 15ba 3e12 6a81 bc0b e1d4 047f 354e b512
00000080: 5e0e d618 438b 81ee 397f 3e41 2a45 1fa4
00000090: 13eb 12f3 7ffc 2de0 197f 010c 8200 16d4
000000a0: d61d 5181 0b0d ef60 e837 3781 0915 ea53
000000b0: afca b7f8 816c 6aec 5518 811e 15e8 b8f5
000000c0: c731 0206 f03e 8160 93bb 8107 ccbf 4959
000000d0: 1df0 e4dc 59f8 7fd2 7fb6 1c53 0529 f968
000000e0: 3b1d 42fa 7fa6 50b4 fa09 e5c0 af1d 7fd9
000000f0: 348c c2bc 81f6 03dc 0d2b fcfd 8100 def1

model_1/block_2_project/Conv2D i1 [8, 1, 1, 48]
-51 -49 -4 -56 10 -2 84 113
-94 -87 -45 10 -59 6 -49 36
-64 10 24 127 73 -21 44 102
66 102 30 14 -54 -66 -51 -9
-49 87 42 -44 34 -40 80 -7
26 2 9 -71 46 -27 -26 -76
-8 55 -8 -50 -81 72 -32 -65
-32 73 -12 14 44 29 -44 -2
-9 -117 77 -32 127 22 -71 16
60 14 -77 47 55 8 70 51
-40 -7 0 -8 4 109 -33 -22
58 36 10 2 108 21 -38 59
-30 -38 116 -2 83 -42 -17 5
-33 10 1 27 21 -62 -45 -127
-56 -108 -15 28 -103 24 -72 -38
-49 6 -4 -62 -52 13 -44 -19
-7 -6 33 1 18 -19 -52 27
30 -41 27 -59 -45 -60 -85 -43
33 16 43 5 3 -25 35 54
-44 -9 38 -28 -63 39 -8 31
69 19 -29 26 -82 -54 127 -3
-11 18 -48 -21 -35 62 95 -49
1 -88 -5 30 -14 -58 -13 52
-52 -51 58 3 -64 -45 57 -23
21 -20 72 -29 12 -29 -7 -15
-65 -8 -15 7 43 -88 28 -82
41 44 -12 -39 7 34 13 9
3 -10 70 -26 37 11 -127 -33
-32 -13 -5 16 21 5 34 1
-40 -16 -71 35 -18 -102 1 24
7 -52 70 36 33 13 32 -18
-74 -7 -45 26 59 11 14 -66
00000000: cdcf fcc8 0afe 5471 a2a9 d30a c506 cf24
00000010: c00a 187f 49eb 2c66 4266 1e0e cabe cdf7
00000020: cf57 2ad4 22d8 50f9 1a02 09b9 2ee5 e6b4
00000030: f837 f8ce af48 e0bf e049 f40e 2c1d d4fe
00000040: f78b 4de0 7f16 b910 3c0e b32f 3708 4633
00000050: d8f9 00f8 046d dfea 3a24 0a02 6c15 da3b
00000060: e2da 74fe 53d6 ef05 df0a 011b 15c2 d381
00000070: c894 f11c 9918 b8da cf06 fcc2 cc0d d4ed
00000080: f9fa 2101 12ed cc1b 1ed7 1bc5 d3c4 abd5
00000090: 2110 2b05 03e7 2336 d4f7 26e4 c127 f81f
000000a0: 4513 e31a aeca 7ffd f512 d0eb dd3e 5fcf
000000b0: 01a8 fb1e f2c6 f334 cccd 3a03 c0d3 39e9
000000c0: 15ec 48e3 0ce3 f9f1 bff8 f107 2ba8 1cae
000000d0: 292c f4d9 0722 0d09 03f6 46e6 250b 81df
000000e0: e0f3 fb10 1505 2201 d8f0 b923 ee9a 0118
000000f0: 07cc 4624 210d 20ee b6f9 d31a 3b0b 0ebe

model_1/block_2_depthwise_BN/FusedBatchNormV3;model_1/block_2_depthwise/depthwise;model_1/block_3_depthwise/depthwise i1 [1, 3, 3, 48]
20 -67 8 18 -9 -62 -55 65
-24 21 21 -6 45 8 -4 7
108 -23 16 24 -1 -24 -89 21
-2 -11 -2 -18 -42 65 -12 -60
49 -17 -72 -90 6 -20 -20 -35
-22 102 -17 18 -26 105 127 -56
-127 -112 -23 127 -62 115 -99 116
33 24 43 -17 45 19 6 -36
-31 14 37 18 8 127 8 127
107 -39 -23 60 72 -127 -7 -13
62 -10 -19 -124 40 28 -87 -59
-127 33 -124 -127 30 111 33 84
-24 -8 12 9 -16 50 44 51
-6 -10 26 -1 -19 0 14 8
-66 5 -40 -13 -4 -32 127 16
-71 -9 47 46 22 34 20 13
-6 -3 -40 92 15 23 -21 93
35 20 12 -59 -25 67 -49 -41
-7 -23 -21 10 51 -90 127 -65
8 7 18 21 127 19 11 -27
-18 -61 39 40 59 -69 45 8
-45 127 -88 -26 127 -106 26 -127
-43 -4 -83 -5 14 -48 -57 8
113 127 7 -123 -76 -62 -20 70
80 -127 127 -1 127 105 -69 -21
69 127 127 -127 -72 127 127 127
127 111 127 127 127 111 -13 -9
127 -92 -127 127 33 124 127 22
-127 127 127 127 -127 127 -127 -127
40 26 -127 -22 127 -127 -24 78
9 46 -33 1 -42 127 -127 127
115 -65 24 43 -38 8 20 -58
00000000: 14bd 0812 f7c2 c941 e815 15fa 2d08 fc07
00000010: 6ce9 1018 ffe8 a715 fef5 feee d641 f4c4
00000020: 31ef b8a6 06ec ecdd ea66 ef12 e669 7fc8
00000030: 8190 e97f c273 9d74 2118 2bef 2d13 06dc
00000040: e10e 2512 087f 087f 6bd9 e93c 4881 f9f3
00000050: 3ef6 ed84 281c a9c5 8121 8481 1e6f 2154
00000060: e8f8 0c09 f032 2c33 faf6 1aff ed00 0e08
00000070: be05 d8f3 fce0 7f10 b9f7 2f2e 1622 140d
00000080: fafd d85c 0f17 eb5d 2314 0cc5 e743 cfd7
00000090: f9e9 eb0a 33a6 7fbf 0807 1215 7f13 0be5
000000a0: eec3 2728 3bbb 2d08 d37f a8e6 7f96 1a81
000000b0: d5fc adfb 0ed0 c708 717f 0785 b4c2 ec46
000000c0: 5081 7fff 7f69 bbeb 457f 7f81 b87f 7f7f
000000d0: 7f6f 7f7f 7f6f f3f7 7fa4 817f 217c 7f16
000000e0: 817f 7f7f 817f 8181 281a 81ea 7f81 e84e
000000f0: 092e df01 d67f 817f 73bf 182b da08 14c6

model_1/block_2_expand/Conv2D i1 [48, 1, 1, 8]
62 118 -76 -103 21 127 15 50
67 -86 41 -127 -76 79 -96 -47
-48 127 106 52 119 20 57 43
74 46 -88 28 -5 -77 -127 -36
-55 32 8 -57 -22 121 127 58
10 101 -115 -112 97 127 58 7
-36 127 101 69 95 3 2 -101
127 9 -41 27 2 11 120 45
52 127 45 75 98 75 84 -81
23 113 -112 -79 -7 127 0 71
-64 -34 4 -65 -8 -29 -68 127
12 -127 -97 -1 33 -3 54 15
-51 -55 -90 -6 -127 41 -57 58
-14 15 -84 90 -127 -21 -2 -16
-59 -60 -127 -5 35 -6 -10 -64
14 -97 -127 0 -92 -26 -36 -17
127 -68 -1 60 -60 20 39 99
-35 90 127 -26 -37 -7 -20 -27
-7 -127 57 50 8 -53 66 -92
127 -37 -57 38 -107 23 53 97
-35 -127 88 75 -20 -95 -8 -85
54 -82 -51 -32 127 -30 73 -31
-127 1 -58 22 76 46 -65 -90
-127 -27 74 -18 -122 113 116 -37
9 46 17 -83 -35 103 127 -2
-57 -83 -127 -36 -39 13 -21 -54
-7 49 -34 127 -73 -8 -47 -25
16 -127 36 87 21 -49 14 -121
0 127 54 79 99 -17 6 -61
41 57 -34 -3 72 -55 -127 35
16 -21 23 -127 23 -26 22 -33
33 -39 0 28 -12 36 5 127
00000000: 3e76 b499 157f 0f32 43aa 2981 b44f a0d1
00000010: d07f 6a34 7714 392b 4a2e a81c fbb3 81dc
00000020: c920 08c7 ea79 7f3a 0a65 8d90 617f 3a07
00000030: dc7f 6545 5f03 029b 7f09 d71b 020b 782d
00000040: 347f 2d4b 624b 54af 1771 90b1 f97f 0047
00000050: c0de 04bf f8e3 bc7f 0c81 9fff 21fd 360f
00000060: cdc9 a6fa 8129 c73a f20f ac5a 81eb fef0
00000070: c5c4 81fb 23fa f6c0 0e9f 8100 a4e6 dcef
00000080: 7fbc ff3c c414 2763 dd5a 7fe6 dbf9 ece5
00000090: f981 3932 08cb 42a4 7fdb c726 9517 3561
000000a0: dd81 584b eca1 f8ab 36ae cde0 7fe2 49e1
000000b0: 8101 c616 4c2e bfa6 81e5 4aee 8671 74db
000000c0: 092e 11ad dd67 7ffe c7ad 81dc d90d ebca
000000d0: f931 de7f b7f8 d1e7 1081 2457 15cf 0e87
000000e0: 007f 364f 63ef 06c3 2939 defd 48c9 8123
000000f0: 10eb 1781 17e6 16df 21d9 001c f424 057f

model_1/block_1_project/Conv2D i1 [8, 1, 1, 48]
-36 -3 32 9 -34 -18 8 11
-39 7 -55 -49 -26 -65 -8 -33
50 -40 36 45 -13 31 -37 16
-2 -36 51 -18 1 -23 16 9
84 40 40 -127 20 -1 -18 -23
14 -13 43 42 36 0 28 3
-3 35 48 -21 -16 39 -48 -36
2 35 -23 -91 14 106 -23 65
-16 24 -30 -57 -21 -73 -35 13
-70 -19 -12 -109 -29 -2 28 -72
24 67 -29 9 127 -31 -19 48
-37 52 -85 -17 116 -16 -32 -25
-14 -31 -63 20 -15 49 21 -2
2 35 -9 29 71 -79 17 -56
32 -88 20 31 -34 47 0 33
-16 56 -14 -58 15 2 8 -67
-58 -87 28 -18 105 16 -15 -64
-7 44 86 32 127 24 18 21
-12 19 -71 43 14 -36 -65 -102
20 -18 -39 2 7 23 35 85
-24 10 -25 43 0 -102 14 -53
-78 -19 127 -11 -30 0 -70 4
-1 -86 8 -14 -24 -32 -30 100
-50 -30 4 9 43 -6 -44 41
-23 -50 -3 6 32 -27 -13 -11
23 -37 65 -74 9 28 6 8
-19 -29 8 -21 -3 -45 8 -14
12 -8 41 49 36 28 -14 28
-12 -13 8 7 -76 84 40 -34
24 -16 -15 -20 -83 8 127 6
39 -28 1 17 30 -46 26 -127
20 -35 -10 119 -74 69 27 -51
00000000: dcfd 2009 deee 080b d907 c9cf e6bf f8df
00000010: 32d8 242d f31f db10 fedc 33ee 01e9 1009
00000020: 5428 2881 14ff eee9 0ef3 2b2a 2400 1c03
00000030: fd23 30eb f027 d0dc 0223 e9a5 0e6a e941
00000040: f018 e2c7 ebb7 dd0d baed f493 e3fe 1cb8
00000050: 1843 e309 7fe1 ed30 db34 abef 74f0 e0e7
00000060: f2e1 c114 f131 15fe 0223 f71d 47b1 11c8
00000070: 20a8 141f de2f 0021 f038 f2c6 0f02 08bd
00000080: c6a9 1cee 6910 f1c0 f92c 5620 7f18 1215
00000090: f413 b92b 0edc bf9a 14ee d902 0717 2355
000000a0: e80a e72b 009a 0ecb b2ed 7ff5 e200 ba04
000000b0: ffaa 08f2 e8e0 e264 cee2 0409 2bfa d429
000000c0: e9ce fd06 20e5 f3f5 17db 41b6 091c 0608
000000d0: ede3 08eb fdd3 08f2 0cf8 2931 241c f21c
000000e0: f4f3 0807 b454 28de 18f0 f1ec ad08 7f06
000000f0: 27e4 0111 1ed2 1a81 14dd f677 b645 1bcd

model_1/block_1_depthwise_BN/FusedBatchNormV3;model_1/block_1_depthwise/depthwise;model_1/block_3_depthwise/depthwise i1 [1, 3, 3, 48]
-48 -118 -14 -18 127 -46 61 -67
-127 -73 -15 -73 127 63 92 -127
58 -23 -16 -96 -10 125 -14 60
-8 54 98 -52 78 -89 23 -46
-87 -127 49 88 37 94 125 -62
-125 -22 45 61 47 -127 84 76
-67 -127 -125 30 -77 127 35 -50
-101 35 64 -127 90 104 80 -72
-63 -87 21 -30 -59 127 -95 127
-94 90 92 -111 72 -69 -19 -127
10 -83 81 126 114 102 127 -65
-127 -47 69 84 92 120 85 72
-21 -82 -53 99 -42 -13 13 -24
72 24 93 -91 31 66 -12 22
-61 -31 25 -83 7 -29 -80 -21
-96 55 26 -68 39 47 127 -82
90 2 -4 24 80 58 21 -13
-37 127 36 45 55 26 20 -127
-115 -66 -23 -57 -65 -78 90 -110
-120 -127 85 -72 102 93 -102 -84
127 -127 -58 -60 -86 93 -64 49
13 74 127 -51 -114 -87 34 -56
-116 -127 -127 73 44 84 -1 -127
57 -37 90 114 73 104 127 -127
-127 -99 -127 -82 -12 121 127 -127
92 58 127 -125 62 127 83 -118
76 -83 -127 -109 -127 114 -127 117
-127 127 119 -127 -127 127 -39 -119
-117 -76 67 127 127 127 8 -121
86 -89 127 127 127 -1 118 121
-41 -68 -119 127 87 -44 21 -49
66 37 35 -30 22 80 93 -61
00000000: d08a f2ee 7fd2 3dbd 81b7 f1b7 7f3f 5c81
00000010: 3ae9 f0a0 f67d f23c f836 62cc 4ea7 17d2
00000020: a981 3158 255e 7dc2 83ea 2d3d 2f81 544c
00000030: bd81 831e b37f 23ce 9b23 4081 5a68 50b8
00000040: c1a9 15e2 c57f a17f a25a 5c91 48bb ed81
00000050: 0aad 517e 7266 7fbf 81d1 4554 5c78 5548
00000060: ebae cb63 d6f3 0de8 4818 5da5 1f42 f416
00000070: c3e1 19ad 07e3 b0eb a037 1abc 272f 7fae
00000080: 5a02 fc18 503a 15f3 db7f 242d 371a 1481
00000090: 8dbe e9c7 bfb2 5a92 8881 55b8 665d 9aac
000000a0: 7f81 c6c4 aa5d c031 0d4a 7fcd 8ea9 22c8
000000b0: 8c81 8149 2c54 ff81 39db 5a72 4968 7f81
000000c0: 819d 81ae f479 7f81 5c3a 7f83 3e7f 538a
000000d0: 4cad 8193 8172 8175 817f 7781 817f d989
000000e0: 8bb4 437f 7f7f 0887 56a7 7f7f 7fff 7679
000000f0: d7bc 897f 57d4 15cf 4225 23e2 1650 5dc3

model_1/block_1_expand/Conv2D i1 [48, 1, 1, 8]
-42 17 6 -36 -85 -28 -127 26
100 -65 -62 -61 127 -96 116 -2
-104 88 -53 -127 42 -47 -52 50
63 14 98 34 99 127 77 14
-57 -110 51 4 -56 -127 15 -32
127 -34 51 89 -63 8 -11 -25
13 27 127 -25 41 -31 -46 34
34 8 -127 -29 -36 89 88 -65
-17 127 -29 2 39 122 31 39
17 65 -54 64 40 -71 19 127
5 -118 -8 -42 -81 -127 -42 -93
-127 -78 105 51 -3 -72 103 63
-38 56 -127 78 34 -43 -80 111
102 -127 96 77 8 34 41 -58
-61 104 -43 -127 -51 -100 -75 -84
38 122 31 4 35 -58 110 -127
-78 -127 -30 95 -51 19 -16 76
-37 -91 -127 55 -58 62 -54 77
-87 -67 -43 85 3 32 -31 127
54 -118 127 -125 15 -73 45 -32
13 74 17 20 66 127 74 -6
33 99 34 -33 43 -59 98 -127
20 -4 125 36 -23 127 21 -41
-104 -83 29 -78 112 94 -55 -127
-102 -89 30 -52 96 102 -36 -127
127 14 -62 -13 17 34 -56 -7
-127 -35 -124 -18 -60 -41 23 -23
79 43 -3 -51 -127 -33 94 96
-122 -127 35 64 -93 -123 2 -12
127 68 51 -93 38 -6 -40 -71
-88 -84 58 -57 78 90 -50 -127
52 45 -6 127 16 -79 17 13
00000000: d611 06dc abe4 811a 64bf c2c3 7fa0 74fe
00000010: 9858 cb81 2ad1 cc32 3f0e 6222 637f 4d0e
00000020: c792 3304 c881 0fe0 7fde 3359 c108 f5e7
00000030: 0d1b 7fe7 29e1 d222 2208 81e3 dc59 58bf
00000040: ef7f e302 277a 1f27 1141 ca40 28b9 137f
00000050: 058a f8d6 af81 d6a3 81b2 6933 fdb8 673f
00000060: da38 814e 22d5 b06f 6681 604d 0822 29c6
00000070: c368 d581 cd9c b5ac 267a 1f04 23c6 6e81
00000080: b281 e25f cd13 f04c dba5 8137 c63e ca4d
00000090: a9bd d555 0320 e17f 368a 7f83 0fb7 2de0
000000a0: 0d4a 1114 427f 4afa 2163 22df 2bc5 6281
000000b0: 14fc 7d24 e97f 15d7 98ad 1db2 705e c981
000000c0: 9aa7 1ecc 6066 dc81 7f0e c2f3 1122 c8f9
000000d0: 81dd 84ee c4d7 17e9 4f2b fdcd 81df 5e60
000000e0: 8681 2340 a385 02f4 7f44 33a3 26fa d8b9
000000f0: a8ac 3ac7 4e5a ce81 342d fa7f 10b1 110d

model_1/expanded_conv_project/Conv2D i1 [8, 1, 1, 16]
-3 -18 -18 -66 -30 -34 25 -27
30 15 -27 -1 104 127 -19 -100
127 -56 -33 16 -36 70 -65 -41
-39 86 -28 -44 -15 4 -57 -17
-48 -109 51 50 56 -55 -84 -24
38 -103 28 -127 52 -27 -80 44
37 6 19 5 -6 73 -50 -27
127 51 12 6 7 -15 16 15
-96 -28 -26 -127 -13 44 70 -123
38 -25 -41 -32 -123 40 -23 -27
88 51 77 -16 46 -39 -122 -127
-15 -76 67 52 -58 50 67 -53
99 41 -127 -80 35 -70 -7 -91
-34 29 -118 95 89 -77 -7 69
-127 -5 91 -18 -67 6 1 -60
-59 59 83 -39 53 -30 15 25
00000000: fdee eebe e2de 19e5 1e0f e5ff 687f ed9c
00000010: 7fc8 df10 dc46 bfd7 d956 e4d4 f104 c7ef
00000020: d093 3332 38c9 ace8 2699 1c81 34e5 b02c
00000030: 2506 1305 fa49 cee5 7f33 0c06 07f1 100f
00000040: a0e4 e681 f32c 4685 26e7 d7e0 8528 e9e5
00000050: 5833 4df0 2ed9 8681 f1b4 4334 c632 43cb
00000060: 6329 81b0 23ba f9a5 de1d 8a5f 59b3 f945
00000070: 81fb 5bee bd06 01c4 c53b 53d9 35e2 0f19

model_1/expanded_conv_depthwise_BN/FusedBatchNormV3;model_1/expanded_conv_depthwise/depthwise;model_1/block_5_project/Conv2D i1 [1, 3, 3, 16]
-11 -5 23 0 -23 11 23 18
-13 -11 0 -8 0 -1 1 1
-6 -7 12 -3 9 -2 26 -25
-10 9 -3 99 -5 26 5 1
-9 3 -7 -4 2 -13 12 12
-2 2 0 -10 -9 0 0 1
3 -6 4 5 127 -23 -127 -19
127 127 0 6 127 -22 -7 -14
-127 127 127 3 -89 -90 -15 -101
17 -105 127 127 124 127 127 127
10 -10 -3 4 -10 127 1 -9
-4 -13 -9 -11 0 -2 -16 -5
0 4 -5 -25 -21 17 57 10
-20 -8 5 -1 -5 1 -8 -9
18 -15 -14 -127 3 -14 0 127
-14 1 11 -16 -19 -57 -8 -34
0 -2 5 -3 -2 -3 4 -1
1 2 9 -1 -4 -5 0 -11
00000000: f5fb 1700 e90b 1712 f3f5 00f8 00ff 0101
00000010: faf9 0cfd 09fe 1ae7 f609 fd63 fb1a 0501
00000020: f703 f9fc 02f3 0c0c fe02 00f6 f700 0001
00000030: 03fa 0405 7fe9 81ed 7f7f 0006 7fea f9f2
00000040: 817f 7f03 a7a6 f19b 1197 7f7f 7c7f 7f7f
00000050: 0af6 fd04 f67f 01f7 fcf3 f7f5 00fe f0fb
00000060: 0004 fbe7 eb11 390a ecf8 05ff fb01 f8f7
00000070: 12f1 f281 03f2 007f f201 0bf0 edc7 f8de
00000080: 00fe 05fd fefd 04ff 0102 09ff fcfb 00f5

model_1/Conv1/Conv2D i1 [16, 3, 3, 1]
-87 -112 -33 66 -38 16 31 127
19 104 -95 -11 -127 103 23 14
-1 -11 -24 -3 -48 35 95 127
-13 -95 -80 122 127 60 5 -18
-11 -97 -122 -40 18 -51 16 9
-127 20 7 -96 -10 -49 25 -9
-127 16 -2 -82 20 -7 -11 81
127 -48 58 -13 -36 -49 -86 22
22 -10 127 46 -15 52 5 -25
-21 -31 52 -55 -88 127 -27 -62
96 -8 52 -7 -2 127 -12 3
91 -2 24 87 12 -37 -127 -29
11 40 18 8 -18 10 65 -92
35 -83 127 -45 -41 49 -10 -127
114 5 -79 78 4 81 30 7
99 94 15 77 127 76 -30 -28
47 44 98 -127 -16 -69 80 -74
-42 8 -127 -123 6 -31 -61 -13
00000000: a990 df42 da10 1f7f 1368 a1f5 8167 170e
00000010: fff5 e8fd d023 5f7f f3a1 b07a 7f3c 05ee
00000020: f59f 86d8 12cd 1009 8114 07a0 f6cf 19f7
00000030: 8110 feae 14f9 f551 7fd0 3af3 dccf aa16
00000040: 16f6 7f2e f134 05e7 ebe1 34c9 a87f e5c2
00000050: 60f8 34f9 fe7f f403 5bfe 1857 0cdb 81e3
00000060: 0b28 1208 ee0a 41a4 23ad 7fd3 d731 f681
00000070: 7205 b14e 0451 1e07 635e 0f4d 7f4c e2e4
00000080: 2f2c 6281 f0bb 50b6 d608 8185 06e1 c3f3
